saved_model/acl18_alstm/exp.rnn|basic_lstm_cell|kernel:0.npy (npy, 1088 bytes, 1 tensors)

array f4 [15, 16]
-1.2418835 -1.967261 -0.5591148 -0.93519354 -0.7682207 0.6384818 1.2443769 0.5715092
0.90152496 0.7566198 0.6195419 1.0085915 -0.3140831 -0.59527713 0.13621752 -0.3948706
0.5547227 0.2237617 0.2718348 0.5704154 -0.48825353 0.68354857 0.7300339 0.62783474
0.60489845 0.27326065 -0.3753244 -0.17206083 0.89779645 0.7382093 0.525386 0.9138652
0.49856114 0.09508004 -0.16008417 -0.29069218 -0.42952967 0.97581404 0.31697637 0.82186764
0.022152953 0.15045065 0.29622546 -1.423652 -0.036215298 -0.04000778 -0.06136592 -1.245295
0.05783645 0.7567416 -0.158986 0.016561808 -0.3284333 0.6404213 0.5205089 0.526738
-0.27822098 -0.32794344 0.13082133 -0.34525883 0.22992806 0.1727086 -0.23527217 0.07483969
-0.0135194445 -0.19774726 -0.014993859 0.2642465 0.96255267 -0.3072078 -0.46759513 -0.6582876
0.005110823 -0.44193932 0.04901232 0.14687549 0.36775494 0.18979903 0.22634928 0.32336792
-0.13456376 0.5201357 0.6154373 0.5866062 -0.5674375 0.40108687 0.90340096 0.3540254
0.903777 1.195919 1.2091508 0.5663229 0.7273324 0.7923422 1.3801398 0.70434576
0.043094836 0.053953663 0.37863988 0.3287774 0.5780714 -0.7850312 -0.18904462 -0.2881839
-0.293299 -0.00312682 -0.15435186 0.4937969 0.35327643 0.28814644 -0.1417086 0.6182362
0.04689672 -0.034620382 -0.5078339 -1.1481024 0.10525247 -0.104666136 -0.81721866 0.22322355
0.26522622 -0.19679776 0.28319106 -0.88956195 -0.47595066 -0.6748524 -0.9041437 -2.9377415
1.9843285 2.7422216 2.5352075 1.2393953 -0.81746995 0.44576594 0.05858488 1.0065241
2.5693724 2.187049 2.909463 1.4631943 2.4130688 3.2735927 3.313862 1.8231422
-0.30363554 -0.7405884 -0.9392672 -0.5446033 0.6789234 -1.0585284 -0.7385955 -0.9654235
-0.75545394 -1.6782726 -2.0181837 -0.020315263 -1.3164706 -1.2970972 -1.3624841 -0.3646057
-0.21359181 0.030004267 -0.45671156 0.25091025 0.2963532 -0.6419108 -0.7850453 -0.5516724
-0.109222084 0.024996735 -0.6769186 -0.24082302 -0.33538803 0.0893974 -0.47430807 1.0332675
0.03208143 0.34203908 0.63667184 -1.02849 0.4704683 -0.8927736 -0.9196065 -1.5573491
0.22712348 1.3162643 0.6949736 0.67689043 -0.089762405 0.58036906 -0.32350558 -1.2603179
0.41153604 -0.19405885 -1.1672016 1.3508774 -0.58917505 0.22517839 1.1031599 -0.46227014
-1.4064546 0.109877594 -0.62985235 -2.9455776 -0.72045946 0.32421198 -0.8546548 -0.6392224
0.4160534 -0.82549673 -0.17961542 1.1920769 -1.7160354 1.7689137 2.7334645 1.1443654
-0.17867346 -0.15763316 -0.35388097 -2.2531707 0.67322034 0.49883342 0.26828977 1.2642651
-1.8585768 -1.616285 -1.6375284 -1.0640184 -0.24005298 0.92394996 0.91894704 -0.2472425
-1.1991092 -1.4205225 -0.2585457 0.5137826 -1.7954116 -2.7798526 -2.2461812 -0.60957533
00000000: 0af6 9ebf 35cf fbbf 2622 0fbf d868 6fbf
00000010: 1daa 44bf 8b73 233f be47 9f3f 6d4e 123f
00000020: 57ca 663f d6b1 413f 4c9a 1e3f 8719 813f
00000030: 80cf a0be 1564 18bf 9b7c 0b3e 7b2c cabe
00000040: 4f02 0e3f c921 653e ee2d 8b3e be06 123f
00000050: 5efc f9be 0afd 2e3f 80e3 3a3f c7b9 203f
00000060: a0da 1a3f d2e8 8b3e 852a c0be b730 30be
00000070: fdd5 653f 49fb 3c3f b27f 063f 12f3 693f
00000080: 6843 ff3e 53b9 c23d 1bed 23be 9bd5 94be
00000090: 50eb dbbe f3ce 793f ba4a a23e eb65 523f
000000a0: 1c7a b53c bc0f 1a3e ddaa 973e 3b3a b6bf
000000b0: 7e56 14bd 33df 23bd d55a 7bbd d465 9fbf
000000c0: eae5 6c3d d1b9 413f 3acd 22be a1ac 873c
000000d0: 6928 a8be a6f2 233f 1240 053f 4dd8 063f
000000e0: fb72 8ebe 34e8 a7be 07f6 053e c4c5 b0be
000000f0: 4372 6b3e 86da 303e 30eb 70be 8d45 993d
00000100: a980 5dbc 427e 4abe cea8 75bc 514b 873e
00000110: da69 763f 574a 9dbe a168 efbe 8985 28bf
00000120: b178 a73b df45 e2be 24c1 483d 8766 163e
00000130: 604a bc3e ad5a 423e 1bc8 673e 7b90 a53e
00000140: 15cb 09be 9d27 053f 4d8d 1d3f d32b 163f
00000150: 9643 11bf 425b cd3e 4945 673f d142 b53e
00000160: ee5d 673f e013 993f 74c5 9a3f 8afa 103f
00000170: 7532 3a3f f0d6 4a3f 6ca8 b03f 0150 343f
00000180: 3684 303d 84fe 5c3d 16dd c13e 8355 a83e
00000190: 7dfc 133f cef7 48bf ea94 41be d78c 93be
000001a0: 492b 96be 56eb 4cbb 6a0e 1ebe f3d2 fc3e
000001b0: a6e0 b43e ee87 933e 0f1c 11be ba44 1e3f
000001c0: c616 403d 1ace 0dbd 6701 02bf 05f5 92bf
000001d0: 9b8e d73d 335b d6bd 3e35 51bf b794 643e
000001e0: bbcb 873e 5a85 49be 6bfe 903e 55ba 63bf
000001f0: ceaf f3be 20c3 2cbf f675 67bf f503 3cc0
00000200: 7afe fd3f 8f80 2f40 d740 2240 81a4 9e3f
00000210: b645 51bf 6f3b e43e b3f6 6f3d c8d5 803f
00000220: 9970 2440 9cf8 0b40 a434 3a40 f349 bb3f
00000230: b86f 1a40 8b82 5140 5116 5440 b95c e93f
00000240: 1e76 9bbe 3497 3dbf d173 70bf 1f6b 0bbf
00000250: edcd 2d3f dc7d 87bf 9814 3dbf ff25 77bf
00000260: 6e65 41bf a3d1 d6bf ec29 01c0 326c a6bc
00000270: 1c82 a8bf 4807 a6bf e165 aebf 99ad babe
00000280: d0b7 5abe 82cb f53c 19d6 e9be 4f77 803e
00000290: 9bbb 973e 4454 24bf bbf8 48bf 673a 0dbf
000002a0: d4af dfbd f4c5 cc3c 8a4a 2dbf 4f9a 76be
000002b0: fbb7 abbe fc15 b73d 82d8 f2be 1c42 843f
000002c0: d167 033d bf1f af3e edfc 223f 8fa5 83bf
000002d0: 39e1 f03e d08c 64bf 556b 6bbf 3757 c7bf
000002e0: 0f93 683e 597b a83f cae9 313f b148 2d3f
000002f0: 5ad5 b7bd 1193 143f 86a2 a5be 1952 a1bf
00000300: dab4 d23e 5db7 46be dd66 95bf 8de9 ac3f
00000310: 2dd4 16bf 2a95 663e 5834 8d3f acae ecbe
00000320: b406 b4bf 8107 e13d 013e 21bf 5884 3cc0
00000330: 0870 38bf 1dff a53e a8ca 5abf 14a4 23bf
00000340: f404 d53e c153 53bf 1bed 37be fa95 983f
00000350: 0ca7 dbbf c46b e23f 15f1 2e40 917a 923f
00000360: 2df6 36be 966a 21be e32f b5be f333 10c0
00000370: 2b58 2c3f 1867 ff3e 475d 893e 70d3 a13f
00000380: d8e5 edbf 6de2 cebf 889a d1bf c131 88bf
00000390: 73d0 75be fc87 6c3f 1d40 6b3f 232d 7dbe
000003a0: 697c 99bf aed3 b5bf 1a60 84be 4287 033f
000003b0: 0cd0 e5bf 1be9 31c0 6fc1 0fc0 210d 1cbf
