saved_model/acl18_alstm/exp.in_fc|kernel:0.npy (npy, 612 bytes, 1 tensors)

array f4 [11, 11]
000000 ea e9 59 bf 4a fc c7 be d1 5e e0 bf 25 9c 22 be
       -0.8512255 -0.3905967 -1.7528936 -0.15879877
000010 4e 55 15 3f 43 84 2a 3e f4 d6 c6 3e e4 97 a0 be
       0.5833329 0.16652016 0.3883587 -0.31365883
000020 ee 7c b9 3d 7d a7 bd bf b2 23 be 3f 27 9a 53 bf
       0.090570316 -1.4816738 1.4854643 -0.8265709
000030 57 76 95 bc 3f 8c b1 bf 78 28 ff be 1e fd 81 3f
       -0.018244905 -1.3870925 -0.49835563 1.015537
000040 86 37 8a 3e 74 7f ee 3e d7 ff 0f c0 5f aa 0a bf
       0.26995486 0.46581614 -2.2499902 -0.54166216
000050 fb 44 cb 3d f2 ae cd bd 5b e3 93 be 1c 5a a4 3d
       0.09925266 -0.10043134 -0.28884396 0.080249995
000060 74 88 3d 3f 96 ef 70 3f 5f 84 54 bf cd df 87 bf
       0.74036336 0.9411558 -0.8301448 -1.0615174
000070 42 29 64 bf 09 a1 eb 3e aa 96 a6 bf c2 4c 36 3f
       -0.89125454 0.46021298 -1.3014729 0.71210873
000080 d0 69 0e 3f 14 59 1b bf 59 8c be 3e 65 e1 cd 3f
       0.5563021 -0.606828 0.37216452 1.608441
000090 24 b7 58 3f 8a 3a 27 be df 9d bf 3e c4 6f 21 bf
       0.8465445 -0.16330925 0.37425134 -0.63061166
0000a0 a3 0a 73 3f 46 ba 81 3f d0 e3 15 bf 09 fd 8f bf
       0.94938105 1.0134971 -0.5855074 -1.1249095
0000b0 23 7e 78 bf f3 4d f8 bd a4 89 a1 3f b9 40 32 3f
       -0.9706747 -0.12124243 1.262013 0.6963001
0000c0 8e 19 37 bf 85 68 6b 3f 1b 67 26 bf b6 f3 b6 3e
       -0.7152337 0.9195636 -0.65001076 0.35732812
0000d0 fb 40 be 3e a8 2b 68 bf c5 26 34 bf 14 ab d3 3e
       0.3715895 -0.90691614 -0.7037166 0.4134146
0000e0 e7 46 d0 3f 4e a6 00 3f c8 9e 85 3f 2d 21 80 bf
       1.6271638 0.5025376 1.0439081 -1.0010124
0000f0 e0 ee a8 bf 7c 8d 42 bf cd a5 80 bf 4c cd 2c 3f
       -1.3197899 -0.7599714 -1.0050598 0.6750076
000100 e3 d6 89 3f c4 2b 8c bf 57 34 20 bf b8 1b 75 be
       1.0768703 -1.0950856 -0.62579864 -0.23936355
000110 b2 e0 de 3e 58 55 7a 3f 96 3d 86 be 73 4b 4d bf
       0.43530804 0.97786474 -0.2621886 -0.8019325
000120 cd 82 79 bf fe 87 8c 3e 80 de 90 be 53 3c d3 3e
       -0.9746521 0.27447504 -0.28294754 0.4125696
000130 e5 7e a9 3e 37 62 5a bf 9c f0 ae bf 0d 8c a1 be
       0.33104625 -0.85306114 -1.3667178 -0.31552163
000140 c6 f7 61 bf 4c af 9e 3d 1c e3 e8 be 00 46 5a 3f
       -0.882687 0.07748279 -0.4548577 0.8526306
000150 6f b6 ef bd 2b 7e 7d be 52 12 13 3f 1b 5b 33 3f
       -0.11704718 -0.2475516 0.5744983 0.7006089
000160 27 ee bf 3f b0 1b 19 3d e5 48 92 be dd f1 c4 be
       1.4994553 0.03737992 -0.2857124 -0.38465777
000170 0e f5 3e 3e 45 e3 7c 3f a4 5b 99 3e 70 30 d4 be
       0.18648168 0.98784286 0.2995273 -0.41443205
000180 1f 96 c0 3e ac 0c 65 bf 48 43 35 bf d5 27 17 3f
       0.37614533 -0.8947246 -0.7080579 0.59045154
000190 a0 3f 8b 3e d1 64 2f bf f9 72 fb 3c 4e 81 74 be
       0.2719698 -0.6851321 0.030694472 -0.23877451
0001a0 5e ef 04 3f 21 6d 1e 3d 5d dd 4f bd f2 93 55 be
       0.51927745 0.038678292 -0.050748218 -0.20857218
0001b0 05 c3 89 bf 61 1e 56 bf d3 94 60 be 51 67 0e bf
       -1.076264 -0.83640105 -0.21931772 -0.556264
0001c0 5d 42 fb be 04 3e 14 bf 33 8f 4a 3f 57 e9 08 3f
       -0.4907407 -0.5790713 0.79124755 0.5348105
0001d0 46 ff 18 3f 39 b2 30 3e fa 6c cb be 28 af 27 be
       0.59764516 0.17255487 -0.3973158 -0.1637541
0001e0 01 34 27 bf
       -0.65313727
